best_model.pth (torch, 76793 bytes, 6 tensors)

fc1.weight f4 [128, 3]
0	0x3d1e6ce0	0.03867805
1	0x3eabcdd2	0.33555466
2	0x3eb18ac1	0.34676173
3	0x3f0f9bde	0.5609721
4	0xbe330787	-0.1748334
5	0x3e9d8eb7	0.30772945
6	0x3e0fc09d	0.1403832
7	0xbf0c35d0	-0.5476961
8	0x3f1d72c9	0.61503273
9	0xbeb07886	-0.34466952
10	0xbecbe3c6	-0.39822215
11	0xbea263a1	-0.31716636
12	0xbe35e58b	-0.17763345
13	0x3ebaf923	0.365182
14	0x3e838c79	0.2569311
15	0xbe9b955c	-0.3038739
16	0x3eb5623c	0.3542651
17	0xbeffd375	-0.49966016
18	0x3f1f02a1	0.62113386
19	0x3ee891a1	0.45423606
20	0x3d2ead53	0.042645764
21	0x3f1e4be5	0.61834556
22	0xbdf07cf8	-0.11742586
23	0x3c9bffc0	0.01904285
24	0x3e9c4d1b	0.30527577
25	0x3e851365	0.2599136
26	0xbe96ca45	-0.29451194
27	0x3f242c24	0.64129853
28	0xbf140c8c	-0.57831645
29	0x3dab2075	0.083558
30	0xbe8d6407	-0.27615377
31	0xbdcc3f0c	-0.09972963
32	0xbf0b32c0	-0.54374313
33	0x3f134e23	0.575411
34	0xbcb0b8b4	-0.021572448
35	0xbf7b7ff5	-0.9824212
36	0xbe94ac9b	-0.29037938
37	0xbc8c4880	-0.017124414
38	0xbd348500	-0.04407215
39	0xbe96ba77	-0.29439136
40	0xbe26f7b6	-0.16305432
41	0xbef853c6	-0.48501414
42	0xbec0584f	-0.37567374
43	0x3e5a2298	0.21302259
44	0x3f11cc1e	0.56952083
45	0xbeccc11f	-0.3999109
46	0x3f053751	0.5203753
47	0x3d68562f	0.056722816
48	0x3f249e85	0.6430438
49	0x3f161cd9	0.5863777
50	0xbe524303	-0.20533375
51	0x3e7bcfc7	0.2459098
52	0x3f11be0f	0.5693063
53	0x3eb092ad	0.34486905
54	0x3f23c5a9	0.6397348
55	0x3f143faa	0.57909644
56	0xbe52b35a	-0.2057623
57	0x3f2a52c8	0.66532564
58	0x3e883b9d	0.2660798
59	0xbd268229	-0.040651474
60	0xbe41852a	-0.18898454
61	0xbef15d17	-0.47141334
62	0xbd29da90	-0.041468203
63	0x3dceb036	0.10092203
64	0x3d47216a	0.04861585
65	0xbed8232d	-0.42214337
66	0x3f05745e	0.5213069
67	0xbee1ed0f	-0.44126174
68	0x3d4748e4	0.0486535
69	0x3ea33610	0.31877184
70	0x3d39d617	0.045370188
71	0xbf5be475	-0.8589547
72	0xbea2c1bf	-0.31788442
73	0x3ed6e68d	0.4197277
74	0xbfb93584	-1.4469457
75	0x3f3b7ec1	0.73240286
76	0xbdc5ada0	-0.09652257
77	0xbf9bba42	-1.2166216
78	0xbf01f680	-0.50766754
79	0xbe0279e0	-0.12741804
80	0xbf006ce4	-0.50166154
81	0x3f21eb86	0.63250005
82	0x3ea04ecb	0.31310114
83	0xbd06e930	-0.03293723
84	0xbf02b6d3	-0.5106022
85	0x3f25ee18	0.6481643
86	0xbf78ce65	-0.97189933
87	0xbdece508	-0.11567122
88	0x3e9c92d5	0.30580774
89	0x3f0cd47f	0.55011743
90	0xbf081213	-0.5315258
91	0x3f00ba61	0.5028439
92	0x3f3606af	0.7110395
93	0x3ee65e22	0.44993693
94	0xbf0cf978	-0.5506816
95	0x3f1dfd6e	0.6171483
96	0xbef74604	-0.48295605
97	0x3f006395	0.5015195
98	0x3e9e5c1b	0.30929646
99	0x3f04dbb2	0.5189773
100	0xbf016c96	-0.50556314
101	0x3e033b73	0.12815647
102	0x3f2da04e	0.6782273
103	0xbeeb93ec	-0.46011293
104	0xbd956e80	-0.07296467
105	0x3eb53fb9	0.3540018
106	0x3c946e9b	0.018119147
107	0x3eef8cd9	0.46787146
108	0x3f2bdbff	0.6713256
109	0xbd95f413	-0.07321944
110	0xbf8b3724	-1.0876203
111	0xbe885eb5	-0.26634756
112	0xbef07aad	-0.46968594
113	0x3ea6c893	0.325749
114	0xbd799490	-0.060932696
115	0xbf112366	-0.5669464
116	0xbefa4b25	-0.48885456
117	0x3f048775	0.5176919
118	0x3e1e920c	0.154854
119	0x3dc91a35	0.09819452
120	0xbea5e0bc	-0.3239802
121	0xbf00ad45	-0.5026439
122	0x3f86958a	1.0514386
123	0xbedec038	-0.43506026
124	0x3e9b3b32	0.303186
125	0x3f446542	0.7671701
126	0x3d74c4cc	0.059757993
127	0x3ee849e0	0.45368862
128	0x3ecfac63	0.40561208
129	0xbe7fb784	-0.2497235
130	0x3f1e2097	0.6176848
131	0x3e079cfa	0.13243476
132	0x3ec5b36b	0.38613448
133	0xbdfda5a0	-0.12385106
134	0xbdbdd4c1	-0.09269095
135	0x3e777054	0.24163944
136	0x3f0ddea2	0.55417836
137	0xbef353f5	-0.47524992
138	0x3ee53eba	0.4477442
139	0xbe110a2e	-0.1416404
140	0x3daaf535	0.08347551
141	0xbf017856	-0.50574243
142	0xbed22136	-0.41040963
143	0xbd7db600	-0.061941147
144	0x3e8b44d2	0.27200943
145	0xbeaa04cc	-0.33206785
146	0x3eb8b0dd	0.36072436
147	0x3f1ac330	0.6045408
148	0xbf0b7a7f	-0.5448379
149	0x3da2f9b0	0.0795778
150	0x3ec456a1	0.38347343
151	0x3ec9aa6c	0.39387834
152	0x3daaa2bd	0.08331821
153	0x3d875a13	0.06608977
154	0xbf073246	-0.52811086
155	0x3f696440	0.91168594
156	0xbe9b4b03	-0.30330667
157	0x3eb718ab	0.35761008
158	0xbf86ae28	-1.0521898
159	0x3f0a6180	0.54055023
160	0x3d8c25d8	0.068431556
161	0xbe913635	-0.2836167
162	0x3ed41b7f	0.41427228
163	0xbf07c828	-0.5303979
164	0x3f208aa1	0.6271153
165	0x3de1150a	0.10990341
166	0x3eecf80b	0.46282992
167	0xbf3fc28a	-0.7490622
168	0xbe57ac9a	-0.21061936
169	0x3e488073	0.1958025
170	0x3f17626b	0.5913455
171	0xbc908c9f	-0.017645178
172	0xbc09dfd7	-0.008415184
173	0x3f386b34	0.7203858
174	0x3dcd5f79	0.100279756
175	0x3e0a171c	0.13485378
176	0x3de354e0	0.11100173
177	0xbec7c0a9	-0.39014176
178	0xbeb5a10b	-0.3547443
179	0x3f3febd2	0.7496921
180	0xbdec95ac	-0.11551985
181	0xbeb41b2a	-0.35176975
182	0xbd8479d0	-0.064685464
183	0x3ee3dbb3	0.44503555
184	0xbea73ce7	-0.32663652
185	0xbe34afb0	-0.17645144
186	0xbf101c8d	-0.56293565
187	0x3d04fe20	0.032468915
188	0xbec3ff66	-0.3828079
189	0xbe4e6b72	-0.20158175
190	0xbe2742a0	-0.16334009
191	0xbe726806	-0.23672494
192	0xbee5e87e	-0.4490394
193	0x3f1079d0	0.5643587
194	0xbf5d471d	-0.86436635
195	0xbe0d3da4	-0.13793045
196	0xbeb1b89c	-0.34711158
197	0xbeb691b0	-0.35658026
198	0x3f03d4af	0.51496404
199	0xbd883dbb	-0.06652399
200	0x3c1c047d	0.009522554
201	0xbe830713	-0.25591335
202	0x3a30f400	0.0006750226
203	0xbe8bd5fb	-0.27311692
204	0x3eb45f3a	0.35228902
205	0x3e9e38aa	0.30902606
206	0xbcedbda9	-0.029021101
207	0xbedbb255	-0.42909494
208	0x3f0457e2	0.516966
209	0xbf395fb6	-0.7241167
210	0x3ddba574	0.10724917
211	0x3f05099c	0.5196779
212	0xbee3c031	-0.44482568
213	0x3f1182b0	0.5684004
214	0x3e90b841	0.28265575
215	0xbeedd2da	-0.4644993
216	0x3dec25ff	0.11530685
217	0x3dbfb743	0.09361126
218	0x3e64a1a5	0.22327287
219	0x3e3fd75e	0.187345
220	0x3e76c167	0.24097215
221	0x3ed5afd3	0.41735706
222	0x3f0020ae	0.50049865
223	0x3e4018dd	0.18759485
224	0x3e8229f2	0.25422627
225	0x3e4d7296	0.20063242
226	0x3f021e2a	0.50827277
227	0xbf1e03b6	-0.6172441
228	0xbef9bf2b	-0.48778662
229	0x3f0b4565	0.5440276
230	0x3ec86b00	0.39144135
231	0xbecaf518	-0.39640117
232	0x3ec8b1b8	0.3919809
233	0x3de341bc	0.11096522
234	0x3ed56069	0.41675118
235	0xbf0b13c6	-0.54327047
236	0x3eb2d74c	0.34929883
237	0x3f382483	0.7193071
238	0xbefd2544	-0.49442494
239	0xbd580ee7	-0.052748587
240	0xbd72db40	-0.059291124
241	0x3f196133	0.5991394
242	0xbdfc5d74	-0.12322512
243	0xbe6ed259	-0.23322429
244	0x3ed3f2e2	0.41396242
245	0xbda5992c	-0.08085856
246	0x3ef1771d	0.4716119
247	0x3cb2f674	0.021846034
248	0x3ee58a86	0.44832247
249	0xbd6b15b2	-0.057393737
250	0x3f0c04d5	0.54694873
251	0xbdde0c76	-0.108422205
252	0xbc28b54d	-0.010297132
253	0x3deef422	0.116676584
254	0x3ede0da8	0.43369794
255	0xbe38faae	-0.18064377

fc1.bias f4 [128]
0	0x40525ca2	3.2869039
1	0x40389679	2.8841841
2	0x3f71265c	0.94199157
3	0x3e4be45c	0.19911331
4	0x403fbce8	2.995905
5	0x3f9d9cd4	1.2313485
6	0x4045cfdf	3.0908124
7	0x4025bf08	2.5897846
8	0x401d2956	2.455648
9	0x4033fc47	2.8122728
10	0xbe425c80	-0.18980598
11	0xbf3055bb	-0.68880814
12	0xbd8bc8f8	-0.06825441
13	0xbf0a52cc	-0.5403259
14	0xc0281e7b	-2.6268604
15	0x3f9693ca	1.1763852
16	0x4048f10a	3.1397119
17	0x4051990e	3.2749667
18	0x40630baf	3.547588
19	0x4047dccf	3.122852
20	0x3ece3708	0.4027636
21	0x3f8245bb	1.017753
22	0x400dc2d0	2.2150154
23	0x3ef09e13	0.469956
24	0x3fbadeec	1.459928
25	0xbd4e2bc8	-0.05033472
26	0x3e9026d2	0.28154618
27	0x4064e371	3.576382
28	0x3f8f4fc9	1.1196223
29	0x402bd86e	2.6850848
30	0xbf9b0632	-1.2111266
31	0x404e0265	3.2188962
32	0x3d8bf89d	0.068345286
33	0x4039d01d	2.9033272
34	0x40226f57	2.5380456
35	0x4041b9d2	3.0269666
36	0xbf4957db	-0.7864968
37	0x3f4e1c40	0.80511856
38	0x3df09748	0.117476046
39	0x4050701b	3.2568424
40	0xc0123fb9	-2.2851393
41	0xc0073ae8	-2.1129704
42	0x40641586	3.5638137
43	0x403711c8	2.8604603
44	0x4028357d	2.6282647
45	0x3fe928b8	1.8215551
46	0x403a519d	2.9112313
47	0x3ebe1006	0.371216
48	0x405aa871	3.4165308
49	0x403232f7	2.7843606
50	0x4077ab43	3.869828
51	0xbf409449	-0.75226265
52	0x3f6c8cd8	0.9240241
53	0x404490d6	3.07134
54	0x402663a1	2.5998309
55	0x3f95b7bb	1.1696695
56	0xc01d8692	-2.4613385
57	0x3db99c4b	0.09063014
58	0x406d26ed	3.7055008
59	0xbfcef47f	-1.6168364
60	0x3de2e888	0.11079508
61	0x40507b37	3.2575204
62	0x3f00544c	0.50128627
63	0x3ec31c18	0.3810737
64	0x3fb9c5fc	1.4513545
65	0xbe064e12	-0.13115719
66	0x4029c0dc	2.6523962
67	0xbea4c793	-0.32183513
68	0x4033a17e	2.8067317
69	0x3fc4ce1c	1.53754
70	0x3fccfb0b	1.6014112
71	0x403d4c82	2.9577947
72	0x40704984	3.754487
73	0x40677dca	3.6170526
74	0x406a277e	3.6586604
75	0x3fd4dc7d	1.6629788
76	0xbfed4663	-1.8537105
77	0x401e5c0b	2.4743679
78	0x401dc95d	2.4654152
79	0x405288c2	3.289597
80	0x405638a2	3.3472066
81	0x3f07480d	0.52844316
82	0x4048fc20	3.1403885
83	0x40505586	3.25522
84	0x404f11df	3.2354658
85	0xbdb6bbd0	-0.08922541
86	0x4045c21f	3.0899732
87	0x4003032d	2.0470688
88	0xbeea25e5	-0.45732036
89	0x3f12420e	0.5713204
90	0xbf6e4e9d	-0.93088704
91	0x404fdb77	3.24777
92	0x4047b167	3.1202028
93	0xbf4b7c5b	-0.79486626
94	0x3f9b556e	1.2135446
95	0x405a299e	3.40879
96	0xc01488ae	-2.3208423
97	0xbe171afb	-0.14756386
98	0x3ff43f44	1.9081807
99	0x3e882394	0.26589644
100	0x3fd4153b	1.6568979
101	0x403ee13b	2.982497
102	0xbedd0f36	-0.43175668
103	0xbd076da0	-0.03306353
104	0x403d28f3	2.9556243
105	0xbe272384	-0.16322142
106	0x4030a320	2.7599564
107	0x3fa91ac4	1.3211293
108	0xbf827e35	-1.0194765
109	0x4037fc39	2.8747694
110	0x40525c46	3.286882
111	0x407c7a08	3.9449482
112	0x4042f859	3.046408
113	0x3f4613f1	0.7737418
114	0x3fc1160b	1.5084852
115	0xbfc7c55d	-1.5607105
116	0x3f8d47f4	1.1037583
117	0x405c78da	3.4448762
118	0x4075afd9	3.838858
119	0x40588968	3.3833866
120	0xbebfcd65	-0.3746139
121	0x405fdf72	3.498013
122	0x4045ed0c	3.0925932
123	0x3e5c56dc	0.21517509
124	0x404f84e2	3.2424855
125	0xbebb754c	-0.36612928
126	0x405798eb	3.3687084
127	0x3fe552c9	1.7915889

fc2.weight f4 [128, 128]
0	0x3d66619e	0.05624544
1	0xbd8491e0	-0.06473136
2	0x3db48c65	0.08815841
3	0xbc39ffd0	-0.011352494
4	0xbca72120	-0.020401537
5	0xbc84a598	-0.016192243
6	0xbda141e8	-0.07873899
7	0xbd15ed20	-0.036603093
8	0x3d13ca3e	0.036081545
9	0x3d25beda	0.040465213
10	0x3d828c2f	0.06374394
11	0x3cf96508	0.030443683
12	0x3d8f2775	0.06989948
13	0xbda0df54	-0.078550965
14	0x3d25fe46	0.040525697
15	0xbc9332cc	-0.017968558
16	0xbd69aa57	-0.057047214
17	0x3d50d092	0.05098016
18	0x3d96fd17	0.07372492
19	0xbbfe4f70	-0.0077609345
20	0x3da4e02d	0.08050571
21	0xbd88ad0a	-0.066736296
22	0x3b10f5e0	0.002211921
23	0xbd96d2e6	-0.073644444
24	0x3d81886d	0.06324849
25	0x3d3c20ce	0.045929722
26	0xbb2c7520	-0.002631493
27	0xbd4a29d4	-0.049356297
28	0x3d66f88e	0.056389384
29	0x3d84f8f5	0.06492797
30	0xbd933bf3	-0.07189169
31	0xbda9b1da	-0.082858756
32	0xbd2f84ec	-0.042851374
33	0xbc14cb80	-0.009081721
34	0xbcfc03ce	-0.030763533
35	0x3d607342	0.05479742
36	0x3d9149d3	0.07094159
37	0x3dae3f89	0.08508212
38	0x3cda6140	0.0266577
39	0x3d1844ca	0.037174977
40	0xbd4a2e40	-0.049360514
41	0x3d83eb65	0.06441382
42	0x3d930a8f	0.07179748
43	0x3be5f610	0.0070178583
44	0xbd9f28e7	-0.077714734
45	0x3d906431	0.0705036
46	0xbc537108	-0.012905367
47	0xbc372de8	-0.0111803785
48	0xbce5fc34	-0.028074361
49	0xbce904ae	-0.028444614
50	0xbd68aedd	-0.056807388
51	0xbccda698	-0.025103852
52	0xbd30332b	-0.043017548
53	0xbdb4a074	-0.088196665
54	0xbd39190f	-0.045189913
55	0xbda55c9b	-0.08074304
56	0xbc2f4450	-0.010697439
57	0x3d978f85	0.07400421
58	0xbd17788e	-0.036980204
59	0xbda13d07	-0.07872968
60	0xbc93b718	-0.018031642
61	0xbceeb512	-0.029139075
62	0x3bc8e3f0	0.006130688
63	0xbd483590	-0.048879206
64	0xbda6c93c	-0.08143851
65	0xbd8880e6	-0.066652104
66	0xbd358c02	-0.044322975
67	0x3d8670cd	0.06564484
68	0xbda0c3d6	-0.07849853
69	0x3d126a2c	0.035745785
70	0xbd9668e4	-0.07344225
71	0x3d1b8b4a	0.037974633
72	0xbd97279f	-0.07380604
73	0xbd51d25f	-0.051226016
74	0xbd5a44dc	-0.053288326
75	0xbd411ee8	-0.047148615
76	0xbdb04768	-0.0860737
77	0xbc2917e0	-0.010320634
78	0xbd43bb19	-0.047785852
79	0x3cba4fe4	0.022743173
80	0x3d28c8ce	0.041207127
81	0xbc1bb1a0	-0.009502798
82	0x3d1a29ce	0.037637524
83	0xbd4d5c46	-0.050136827
84	0x3cf2b48c	0.029627107
85	0x3d4fb6d2	0.05071146
86	0x3d46b196	0.048509203
87	0xbbe9e260	-0.0071375817
88	0xbd83849d	-0.06421778
89	0xbd4bce15	-0.049757082
90	0x3d1530c0	0.036423445
91	0xbd770f28	-0.06031719
92	0x3d5d9046	0.054092668
93	0x3d007ffa	0.031372048
94	0xbc6317d0	-0.013860658
95	0xbd0ae3d3	-0.033908676
96	0xbdb23808	-0.08702093
97	0x3d23a26a	0.039949812
98	0xbd92c4f7	-0.07166474
99	0x3d17f326	0.03709712
100	0x3d26bcb2	0.040707298
101	0xbbd00f70	-0.0063494965
102	0x3dac1c4b	0.08403834
103	0x3da3ab39	0.079916425
104	0xbda0d72e	-0.07853542
105	0xbc2b4b88	-0.01045502
106	0x3c9c2950	0.019062668
107	0x3ce45be0	0.02787584
108	0xbdac9537	-0.08426898
109	0xbda0dea2	-0.07854964
110	0xbda127e2	-0.07868935
111	0x3cbf7394	0.023370542
112	0xbd5d8122	-0.05407823
113	0x3d4c3516	0.049855314
114	0xbcf10e8e	-0.029425886
115	0xbb5b2140	-0.0033436567
116	0xbd5698ac	-0.052391693
117	0xbc662250	-0.014046267
118	0x3d791f2a	0.060820736
119	0xbdad9c46	-0.084770724
120	0x3da3da4b	0.080006205
121	0xbd8c78d8	-0.068589866
122	0x3cc49cb8	0.02400051
123	0xbcb6a37c	-0.022294752
124	0x3d98e6a9	0.0746587
125	0xbd9d5ac4	-0.07683328
126	0xbd100ea2	-0.035170205
127	0x3d2fbd9a	0.042905428
128	0x3c3fb1a8	0.011700071
129	0x3dd2814c	0.10278568
130	0x3d09751a	0.033558942
131	0xbbf6f050	-0.0075359717
132	0x3d86a800	0.06575012
133	0xbdc9e959	-0.09858961
134	0x3e1326ad	0.14370222
135	0x3d4f9f2d	0.05068891
136	0x3dd13970	0.102160335
137	0x3e1bf72b	0.15231006
138	0x3a3d9000	0.00072312355
139	0x3edc3c1e	0.43014616
140	0xbd7ee2f9	-0.062228177
141	0xbd9a0bac	-0.075217575
142	0x3beaa985	0.0071613216
143	0xba9eb7b0	-0.0012109187
144	0x3d09a6ed	0.03360646
145	0x3cbff6dc	0.023433141
146	0x3dc754ef	0.09732997
147	0x3e1961aa	0.14978662
148	0xbd45835f	-0.04822099
149	0x3e2e5b29	0.17026962
150	0x3e190b23	0.14945655
151	0x3eddc5dc	0.43315017
152	0x3e377635	0.17916186
153	0x3ec18e05	0.37803665
154	0x3d1510be	0.03639292
155	0x3d4723fb	0.048618298
156	0x3d8cc835	0.06874124
157	0x3d1aa8de	0.0377587
158	0xbd8ffb51	-0.07030357
159	0x3d085e09	0.033292804
160	0xbd863197	-0.06552427
161	0x3e68e10d	0.227421
162	0x3d8821d7	0.066470794
163	0x3e2e63f5	0.17030318
164	0x3e9a3e1d	0.30125514
165	0xbdbd3dc5	-0.09240297
166	0xbd5b90a8	-0.05360475
167	0x3e3d0b05	0.18461235
168	0x3eac8e6c	0.3370241
169	0x3d1a7517	0.03770932
170	0x3d5fa91c	0.054604635
171	0x3cbced52	0.023062382
172	0x3de63e3a	0.112423375
173	0x3e237e22	0.15966085
174	0x3d8c2890	0.06843674
175	0x3d74f4da	0.05980382
176	0x3da90b9c	0.082541674
177	0x3d8c40dc	0.068483084
178	0x3da8398a	0.082141
179	0x3e591185	0.2119809
180	0x3c261618	0.0101371035
181	0x3dcefef7	0.101072244
182	0x3e0a0fa3	0.13482527
183	0xbb72244c	-0.0036947904
184	0xbc4785a6	-0.01217786
185	0x3d3791f7	0.044816937
186	0x3e0936fe	0.13399884
187	0x3e92e023	0.28686628
188	0xbd8ff2c2	-0.07028724
189	0x3e9e2d21	0.30893806
190	0x3d5369ca	0.05161456
191	0x3d28c6da	0.041205265
192	0xbbe9be6d	-0.007133296
193	0xbd50b9a6	-0.0509583
194	0x3da4fe6f	0.08056342
195	0xbdaa9b03	-0.083303474
196	0xbcc1cee3	-0.023658222
197	0xbd6f9da1	-0.058499936
198	0x3cba3611	0.022730859
199	0x3e2b7f03	0.1674767
200	0x3d3fbd77	0.046811547
201	0x3e367025	0.17816217
202	0x3e36a484	0.17836195
203	0x3cf2dd74	0.029646613
204	0xbc2110fb	-0.009830709
205	0x3d0e0d87	0.03468087
206	0x3e0574c1	0.1303282
207	0x3e0eb1c6	0.13935003
208	0xbd07b39d	-0.033130277
209	0xbef143df	-0.47122094
210	0x3e3beb5f	0.18351506
211	0x3d97ccfd	0.07412145
212	0x3dfb9401	0.12284089
213	0xbd94f274	-0.07272807
214	0x386c566b	5.6347268e-05
215	0xbe6cc563	-0.23122172
216	0x3ec15ac2	0.37764555
217	0xbd677836	-0.056511126
218	0xbe757e49	-0.23973955
219	0x3e07d8dc	0.13266319
220	0x3e1012da	0.14069691
221	0xbe623d2e	-0.2209365
222	0x3b82aa64	0.0039875973
223	0x3b9e1204	0.004823925
224	0x3d506395	0.05087622
225	0xbd9280bd	-0.07153461
226	0x3d434a23	0.047678124
227	0xbda5e61a	-0.08100529
228	0x3dbe7f3c	0.09301612
229	0x3e167720	0.1469388
230	0xbd139087	-0.036026504
231	0x3bf49160	0.007463619
232	0xbd0d2599	-0.034459684
233	0x3cddb942	0.027065877
234	0xbcef4dd6	-0.02921192
235	0x3d3b3ec5	0.04571416
236	0x3ec02fa3	0.37536344
237	0x3ce6a377	0.028154118
238	0x3e14d861	0.14535667
239	0x3dfdac98	0.12386435
240	0x3e372c52	0.17888
241	0x3ee9edf6	0.45689362
242	0xbe290a29	-0.16507782
243	0x3e887150	0.2664895
244	0xbcb5d15c	-0.022194557
245	0x3e207789	0.15670599
246	0x3cf86179	0.030319916
247	0x3ee78557	0.45218918
248	0xbc21edac	-0.009883326
249	0x3dd68a49	0.104755946
250	0x3e126d41	0.1429949
251	0xbd48e5b4	-0.049047187
252	0x3ec07a2a	0.37593204
253	0x3d1bfff2	0.038085885
254	0x3dfdc483	0.12390997
255	0x3dbf7a45	0.09349493

fc2.bias f4 [128]
0	0x3bc4a110	0.0060006455
1	0x3fe5e6e2	1.7961085
2	0xbd410488	-0.047123462
3	0x40232406	2.5490737
4	0x3cb573e5	0.02214999
5	0x40221bb3	2.5329406
6	0x3ff4e506	1.9132392
7	0xbe3b134a	-0.18269077
8	0x3f8deb31	1.10874
9	0xbdab8be0	-0.083762884
10	0x40120bdf	2.2819746
11	0xbd8a6e05	-0.06759266
12	0x401c9c01	2.4470217
13	0x403d10dd	2.9541543
14	0x4000c2e7	2.011896
15	0x4026f29d	2.608558
16	0xbd75f99d	-0.060052503
17	0xbd9cc53d	-0.07654808
18	0x3d1c7a76	0.038202725
19	0x3d7a2634	0.06107159
20	0xbf92b91d	-1.1462742
21	0x401b393d	2.4253685
22	0x3fdfddcc	1.7489562
23	0x403ba92f	2.9322011
24	0xbbbfe535	-0.005856181
25	0x403f5195	2.9893544
26	0x4003294c	2.0493956
27	0x3d7d89d7	0.061899032
28	0x3d980776	0.07423298
29	0x3fda5458	1.705699
30	0xbd1707ec	-0.03687279
31	0xbf8b3587	-1.087571
32	0x40432230	3.0489616
33	0xbc9d975b	-0.019237211
34	0x3d1916bd	0.0373752
35	0xbbe81d90	-0.0070836022
36	0xbc1a4ade	-0.009417264
37	0x40208fb3	2.5087707
38	0xbd1067fd	-0.03525542
39	0x4026056f	2.5940816
40	0x3fec93e0	1.8482628
41	0x40415558	3.020834
42	0x3bb24970	0.0054408833
43	0x3fc7a612	1.5597556
44	0x402567b7	2.5844553
45	0x3d86a362	0.065741315
46	0x3fc613bd	1.5474774
47	0x3f5a3b08	0.85246325
48	0x3d5d31e4	0.054002658
49	0x4024ebed	2.5768998
50	0x3d1ff3aa	0.039050736
51	0xbd3b96c3	-0.045798074
52	0x4040f8b1	3.015179
53	0x3c2504a6	0.010071909
54	0x4042cadc	3.0436316
55	0x402d58fe	2.7085567
56	0x400075fe	2.0072017
57	0xbdc665ce	-0.096873865
58	0x3d63c52e	0.055607967
59	0xbce7a867	-0.028278543
60	0x40423f26	3.0351043
61	0xbb095b02	-0.0020958786
62	0x404f90a3	3.243203
63	0x40486f4c	3.131793
64	0xbdbda924	-0.09260777
65	0x3f898316	1.0743129
66	0xbd108c11	-0.035289828
67	0xbd8d8cb4	-0.069116026
68	0x3fba44e0	1.4552269
69	0x4045d9c1	3.0914156
70	0xbdb53431	-0.08847845
71	0x4042b193	3.0420883
72	0xbd4c6274	-0.04989858
73	0x3dc74727	0.09730368
74	0x40309fb9	2.7597487
75	0x40466bea	3.1003366
76	0xbcc96462	-0.024583999
77	0x403affab	2.9218547
78	0x403e8fe9	2.9775336
79	0x3d01fddd	0.031736244
80	0xbdb6e844	-0.0893102
81	0x3fa0b331	1.2554685
82	0xbe0977f0	-0.13424659
83	0xbca1443c	-0.019685857
84	0x3ce8562b	0.0283614
85	0x402b2b3e	2.6745143
86	0xbd3c32fd	-0.045947064
87	0x404865bc	3.1312094
88	0x3b825d98	0.0039784424
89	0xbd2df6a8	-0.042471558
90	0x3bd6edf0	0.006559126
91	0xbe5a97c3	-0.21346955
92	0x402cfe19	2.703009
93	0xbe5dddc1	-0.21666624
94	0xbd7a455f	-0.061101314
95	0x402db73a	2.7143083
96	0xbd313538	-0.043263644
97	0x402d36c2	2.7064672
98	0x3a18198e	0.0005802148
99	0x402150c8	2.5205555
100	0xbcbecddb	-0.023291519
101	0xbf1471e7	-0.579863
102	0xbf852b53	-1.0403847
103	0x404271fe	3.0382075
104	0x3d213bfe	0.039363854
105	0x3f5e796b	0.8690402
106	0xbe579e6e	-0.2105653
107	0x3edfed5a	0.43735772
108	0x3f87c393	1.060656
109	0x3fd3846d	1.6524788
110	0x3d65d2a6	0.056109093
111	0x4022d48a	2.5442224
112	0x4025a350	2.5880928
113	0x4034a8c6	2.822801
114	0x4044f5c3	3.0775
115	0x4012febc	2.2967978
116	0xbd0e97f4	-0.034812883
117	0x3f82b862	1.0212519
118	0xbbfaab62	-0.007649825
119	0xbf380e55	-0.7189687
120	0xbf81e0c1	-1.0146714
121	0xbd86f694	-0.0659
122	0x404e5158	3.2237148
123	0x401c34a2	2.4407125
124	0xba1467a5	-0.0005661196
125	0x3f74a718	0.95567465
126	0x3d44a811	0.048011843
127	0x3f8ef3d3	1.1168159

fc3.weight f4 [11, 128]
0	0xbd4bfe03	-0.04980279
1	0xbe18f1ff	-0.14936064
2	0x3c9efecc	0.019408606
3	0xbdbbb3bf	-0.09165143
4	0xbc214662	-0.009843441
5	0xbe3d0eba	-0.18462649
6	0xbe2f1d6e	-0.1710107
7	0xbe430eec	-0.19048661
8	0xbd406453	-0.046970677
9	0xbcbe8721	-0.023257794
10	0xbda33f2c	-0.079710335
11	0x3d689f1a	0.056792356
12	0xbe1f9e20	-0.15587664
13	0xbe5cd307	-0.21564876
14	0x3c3e5605	0.011617188
15	0xbe2c8aa3	-0.1684976
16	0xbd992250	-0.07477248
17	0xbd22e060	-0.039764762
18	0xbc88a0fc	-0.016678326
19	0x3c9e3e88	0.019316927
20	0x3bff1ce3	0.007785426
21	0xbe953b1d	-0.29146662
22	0x3e7dce60	0.24785757
23	0xbe10d453	-0.14143495
24	0x3d840502	0.06446268
25	0xbe8ed549	-0.278971
26	0x3e0ccc04	0.13749701
27	0x3d363d00	0.044491768
28	0xbd30d18a	-0.043168582
29	0xbe3ca8a9	-0.18423714
30	0xbd7bbc1a	-0.061458685
31	0xbe15d27a	-0.14631072
32	0xbe0ce1c5	-0.13757999
33	0x3c21a7a8	0.0098666325
34	0xbd86a3ca	-0.06574209
35	0xbd36b051	-0.044601742
36	0xbdae8ecd	-0.08523331
37	0xbd7f9cd8	-0.062405437
38	0x3da27ec2	0.079343334
39	0xbd99d01b	-0.07510396
40	0x3d91dfd9	0.07122774
41	0xbe293e7d	-0.16527744
42	0x3d712f56	0.058883034
43	0xbdd1bb91	-0.102408536
44	0xbdc352e3	-0.09537294
45	0x3d4b5116	0.049637876
46	0xbd929f67	-0.0715931
47	0xbabf719b	-0.0014606001
48	0x3bfab67d	0.007651149
49	0xbdda859f	-0.106700175
50	0xbc4a5572	-0.012349473
51	0x3d127182	0.03575278
52	0xbe1db72c	-0.15401906
53	0x3ca97781	0.020686867
54	0xbd9e7130	-0.077364326
55	0xbc959b39	-0.018262492
56	0xbe2dbf8b	-0.16967599
57	0xbdbfbce5	-0.09362201
58	0xbc854947	-0.016270293
59	0xbd8633ce	-0.0655285
60	0xbe02c3f6	-0.12770066
61	0x3db2d13e	0.08731316
62	0xbe2ca043	-0.1685801
63	0xbe532043	-0.20617776
64	0x3d927f5d	0.07153199
65	0xbe186c92	-0.14885166
66	0x3cab8cf8	0.020941243
67	0xbdaa9284	-0.08328727
68	0xbdc7829d	-0.097417094
69	0xbe295e39	-0.1653985
70	0xbc26eaba	-0.010187799
71	0xbe25297f	-0.16129111
72	0x3d8ce34d	0.06879292
73	0xbe6e5099	-0.23272933
74	0xbe6d4fe9	-0.23175015
75	0xbd62b0b9	-0.055344317
76	0xbc353248	-0.011059351
77	0xbe5b1010	-0.21392846
78	0xbdfd049e	-0.12354396
79	0x3d7b7493	0.06139047
80	0x3e54da77	0.20786463
81	0xbd7f26c2	-0.06229282
82	0xbd869a3a	-0.06572385
83	0x3ae75b40	0.0017651096
84	0xba2b76c3	-0.0006540829
85	0xbe377d8d	-0.17918988
86	0xbd8d017c	-0.06885049
87	0xbdf45f0c	-0.11932191
88	0xbd57992a	-0.052636303
89	0xbd209029	-0.03919998
90	0x3c961a3c	0.018323056
91	0xbdd6a93c	-0.10481498
92	0xbe30b8f3	-0.17258053
93	0x3df59c43	0.11992695
94	0x3d72bd4a	0.05926255
95	0xbe5c30c1	-0.21502973
96	0x3b9561d0	0.0045587793
97	0xbe49375d	-0.19650026
98	0xbd50b317	-0.050952043
99	0xbe2fd46c	-0.17170876
100	0x3d154020	0.036438107
101	0xbd7a955b	-0.061177593
102	0xbdd330e5	-0.1031206
103	0xbe4d6e87	-0.20061694
104	0x3d603716	0.054740034
105	0xbb120338	-0.002227975
106	0xbcea97c8	-0.028636828
107	0xbdcb3dd3	-0.099239014
108	0xbdeda0d2	-0.1160294
109	0xbe31ca8f	-0.17362426
110	0x3d29a15a	0.041413642
111	0xbe0948da	-0.13406697
112	0xbd5b3b77	-0.053523507
113	0xbe13b011	-0.14422633
114	0xbe7c2b04	-0.24625784
115	0xbe266695	-0.1625007
116	0xbc94bb3f	-0.018155692
117	0xbe1741da	-0.14771214
118	0xbd2f81a4	-0.042848244
119	0x3c5d6630	0.013513133
120	0xbdfe82a5	-0.12427262
121	0xbd1cde2d	-0.03829782
122	0xbe300a13	-0.17191343
123	0xbea6fd0a	-0.32614928
124	0x3d04c5ac	0.032415077
125	0xbdd17de4	-0.1022909
126	0xbd3a866f	-0.045538362
127	0xbe832cbc	-0.25620067
128	0x3d97cc87	0.07412057
129	0xbe02acbc	-0.12761205
130	0x3d0f9208	0.035051376
131	0xbd8489ac	-0.06471571
132	0x3ceabf06	0.02865554
133	0xbe19fb4c	-0.15037268
134	0xbe92e0e3	-0.286872
135	0xbef352c2	-0.47524077
136	0xbe815359	-0.25258902
137	0x3d90ab2f	0.07063901
138	0x3cf53e77	0.029937012
139	0xbd11ee63	-0.035627734
140	0xbd7ab3bf	-0.061206575
141	0xbe650704	-0.22365957
142	0xbec7b3a9	-0.39004257
143	0xbe00a671	-0.12563492
144	0x3db5086f	0.08839499
145	0x3d70c62a	0.058782734
146	0xbd1cdab7	-0.03829452
147	0xbcfb2c0c	-0.030660652
148	0x3dc2bb6d	0.09508405
149	0x3e9d8ec1	0.30772975
150	0x3e834a58	0.25642657
151	0xbe26c264	-0.16285092
152	0xbd7452b3	-0.05964918
153	0xbe5168fb	-0.20450203
154	0x3dc8411c	0.09778044
155	0x3c8b3b1c	0.016995959
156	0x3d606c5e	0.054790847
157	0xbe81b4ba	-0.25333196
158	0x3d14665f	0.03623044
159	0x3f09cf9b	0.53832406
160	0xbe243b91	-0.16038348
161	0x3d180716	0.037116133
162	0xbd32078a	-0.04346422
163	0x3da61c29	0.0811084
164	0xbc9c18d4	-0.019054808
165	0xbdc24ec1	-0.09487677
166	0xbd03d964	-0.03218974
167	0xbdcf1816	-0.10112016
168	0x3db75147	0.08951049
169	0xbe81dee3	-0.25365362
170	0xbd2e9879	-0.042625878
171	0x3e0f419a	0.13989869
172	0xbea22fde	-0.31677145
173	0xbd38869b	-0.045050245
174	0x3e17f128	0.14838088
175	0xbe6fd846	-0.23422346
176	0x3da67a0a	0.08128746
177	0xbe559eba	-0.2086133
178	0x3cf78f6f	0.030219762
179	0x3da00f3b	0.07815405
180	0xbde217a3	-0.110396646
181	0x3d249987	0.040185478
182	0xbe53f164	-0.20697552
183	0xbdf613d2	-0.12015499
184	0xbe5cde02	-0.21569064
185	0x3d2fceb5	0.04292174
186	0x3bcb2590	0.006199546
187	0x3d09cc09	0.03364185
188	0xbdb9b449	-0.0906759
189	0x3d0e7d48	0.034787446
190	0xbe17fef8	-0.14843357
191	0xbd9ba52c	-0.075998634
192	0x3d48e4aa	0.049046196
193	0xbe152b56	-0.14567313
194	0x3d314907	0.043282535
195	0x3d542f8a	0.05180315
196	0xbe1b35ac	-0.15157193
197	0xbe565530	-0.20930934
198	0x3b9c414a	0.0047685253
199	0xbdb76133	-0.08954086
200	0x3dad7b49	0.084707804
201	0xbd89080d	-0.06690989
202	0xbeb2a813	-0.34893855
203	0xbe1e5856	-0.15463385
204	0xbc859b64	-0.016309448
205	0xbc06246a	-0.008187393
206	0xbe7f802f	-0.24951242
207	0x3ce0c748	0.027438775
208	0x3c287414	0.010281581
209	0xbed689fe	-0.41902155
210	0x3cef3c70	0.029203624
211	0xbd7edd32	-0.062222667
212	0xbcc6704c	-0.02422347
213	0xbe84910c	-0.25891912
214	0x3cc5be6c	0.024138652
215	0xbe477b94	-0.19480735
216	0x3cfc8bd1	0.030828388
217	0xbda6a8c9	-0.08137662
218	0x3d2b491e	0.041817777
219	0xbeaab760	-0.3334303
220	0xbe726cc7	-0.23674308
221	0xbd144673	-0.036199998
222	0xbd0bedad	-0.034162212
223	0xbe76202e	-0.24035713
224	0x3d1a5752	0.03768093
225	0xbea2e568	-0.31815648
226	0xbb22492d	-0.0024762854
227	0xbcce356d	-0.02517196
228	0x3d1f4978	0.038888425
229	0xbe972563	-0.2952071
230	0xbde013a2	-0.10941245
231	0xbe3f58cd	-0.18686219
232	0x3d039810	0.03212744
233	0x3e49b54e	0.19698068
234	0xbd5e409a	-0.054260828
235	0x3db35f07	0.087583594
236	0xbdd2bd5a	-0.10290022
237	0xbdfae45c	-0.12250587
238	0x3d8c8e1d	0.068630435
239	0x3dff97fb	0.1248016
240	0xbdd37408	-0.103248656
241	0xbea83f25	-0.32860675
242	0xbe623186	-0.22089204
243	0xbe2a250d	-0.16615696
244	0x3d563d53	0.052304577
245	0xbea8ff28	-0.3300717
246	0x3d6feb60	0.05857408
247	0xbeac176c	-0.3361162
248	0x3c913a9e	0.017728146
249	0x3cb4c304	0.022065647
250	0xbe600c98	-0.21879804
251	0xbe991d30	-0.2990508
252	0x3b48dbe0	0.0030648634
253	0xbe7dc6b6	-0.24782833
254	0xbc96a104	-0.018387325
255	0xbebc1218	-0.36732554

fc3.bias f4 [11]
0	0xbece588e	-0.40301937
1	0xbf3831bc	-0.7195089
2	0xbed2f91d	-0.41205683
3	0xbf4c24c0	-0.79743576
4	0xbf2ee55e	-0.68318737
5	0xbee7c462	-0.45267016
6	0xbf4bfda6	-0.7968391
7	0xbf40ba4c	-0.75284266
8	0xbfced39e	-1.615833
9	0xbed6d0b5	-0.41956106
10	0xc01d8233	-2.4610717
