dqn_grid_agent_trained.pth (torch, 174303 bytes, 8 tensors)

fc1.weight f4 [256, 4]
0.4306243 0.5814292 -0.26870534 0.43381438 0.068088666 -0.18715592 -0.18952838 0.46237376
0.38496158 -0.8043494 0.40171677 0.14907974 0.3324358 0.40573552 0.28472796 -0.07469659
0.35830632 -0.49880365 -0.38607004 -0.091028534 -0.23036832 -0.058636427 -0.20307916 0.33168548
-0.3946851 -0.23050517 -0.14118737 -0.30063623 0.04719156 -0.49383956 0.45155454 -0.42473412
0.3455828 -0.15161568 -0.11970513 0.30800253 0.077925384 0.4039817 0.054659843 -0.15768659
0.08824502 -0.64576143 0.12308733 0.49260235 0.1967208 -0.79012704 0.13505127 0.09135068
0.4557751 -0.2796921 -0.08255808 0.0528589 -0.34192887 0.81665653 0.24212435 0.093334034
0.11584696 0.26809433 0.31138644 -0.28559828 0.031481862 -0.3412701 0.154176 -0.17219114
0.15320814 -0.10417074 0.41469592 -0.29635096 -0.41654643 -0.65996444 0.58850133 0.22161284
0.48112535 -0.41263813 -0.49593806 -0.3911819 -0.35795322 0.39272457 0.03629299 0.26184413
-0.2582127 -0.3408559 0.26528907 -0.20210224 0.22110905 0.25925305 0.5236175 -1.2188694
-0.2553784 0.3867655 0.022536017 -0.11765799 0.22144273 0.59694374 -0.44772825 -0.26231498
0.5230035 -0.39917663 -0.039843608 -0.22268546 -0.2863351 0.12490183 -0.06599659 -0.362943
0.35070664 -0.46439573 -0.14212705 0.3030655 -0.09526551 -0.15869206 1.0410781 0.3811702
0.15407985 -0.46634215 -0.3283869 -0.16642791 0.07818556 -0.43996066 -0.21543652 -0.2993343
0.27339837 -0.29018444 0.25231707 -0.034198307 -0.34319758 -0.2917009 -0.17114872 -0.39464045
0.36475363 -0.7254344 0.33796012 -0.0636803 -0.4233985 0.3460176 -0.13757241 -0.19166303
-0.41503525 -0.49708033 0.14305532 -0.109221935 0.19466156 -0.41033173 0.37121457 -0.36702687
-0.030038819 0.3999489 0.3031246 0.3567311 0.53961015 -0.5275611 0.43061972 -0.005325959
0.18689327 -0.43202648 0.77909213 -0.048834417 0.37069172 -0.3122147 -0.02269566 -0.39177394
0.45447576 0.1098752 0.06432003 -0.4406274 0.11695258 -0.6424835 -0.35036224 0.4535969
0.111474395 -0.2766382 -0.25306946 -0.02387786 0.27341196 -0.34705484 -0.060229972 -0.010938755
-0.32949635 0.45868015 0.2682444 -0.43444902 0.7170346 0.7654887 0.4061674 0.21541098
0.2290824 -0.14551413 -0.018745229 -0.2070978 -0.24112166 -0.3029198 0.015949145 -0.09957114
0.21224782 0.65914565 -0.15421522 -0.22296326 -0.25875297 -0.6840879 0.007774912 0.049628783
-0.24164936 0.21054229 0.45617634 0.21856979 -0.024868786 -0.30145288 -0.30590254 -0.44788343
-0.20501107 0.4355598 0.2942162 0.10066815 -0.45655596 -0.4046665 0.20337129 0.7030416
0.07232875 -0.12948537 0.20685762 -0.19044077 -0.32362783 0.36494362 -0.22735089 -0.100233376
-0.44681764 0.69532174 0.44603235 0.09682127 -0.3486371 -0.49346995 -0.40608948 0.37285012
0.103476524 0.694786 0.22700766 0.0016939237 -0.0048963428 -0.38025302 -0.4283861 -0.46767431
0.20468098 -0.245484 -0.10062629 -0.28775263 0.22845867 -0.4179032 -0.0392228 0.51469976
-0.011963897 -0.042373233 -0.24148728 -0.28873757 0.31838188 -0.3051258 0.1599954 0.089702606
00000000: ca7a dc3e 8bd8 143f bf93 89be eb1c de3e
00000010: 1272 8b3d cda5 3fbe ba13 42be 41bc ec3e
00000020: af19 c53e d8e9 4dbf d2ad cd3e 5ca8 183e
00000030: 0635 aa3e 91bc cf3e ddc7 913e 87fa 98bd
00000040: ed73 b73e 3163 ffbe f9aa c5be 2b6d babd
00000050: ace5 6bbe c02c 70bd fcf3 4fbe aed2 a93e
00000060: 2a14 cabe 8c09 6cbe 6c93 10be feec 99be
00000070: f04b 413d 8ad8 fcbe 2832 e73e c076 d9be
00000080: 3bf0 b03e 2441 1bbe f727 f5bd 82b2 9d3e
00000090: 5897 9f3d b0d6 ce3e 00e3 5f3d 9878 21be
000000a0: ceb9 b43d 9f50 25bf 3615 fc3d 6036 fc3e
000000b0: 2d71 493e c445 4abf e14a 0a3e 1116 bb3d
000000c0: 5b5b e93e ce33 8fbe 3614 a9bd 9382 583d
000000d0: 4d11 afbe 6710 513f 72ef 773e ea25 bf3d
000000e0: 2c41 ed3d a943 893e 0b6e 9f3e f039 92be
000000f0: 20f3 003d f4ba aebe 50e0 1d3e e052 30be
00000100: 98e2 1c3e 7857 d5bd 0653 d43e 50bb 97be
00000110: 9345 d5be 6ef3 28bf 06a8 163f 7aee 623e
00000120: 1056 f63e 4e45 d3be 98eb fdbe fe48 c8be
00000130: a545 b7be 3213 c93e f5a7 143d 6f10 863e
00000140: 7434 84be aa84 aebe f8d3 873e e4f3 4ebe
00000150: 696a 623e d1bc 843e cc0b 063f ea03 9cbf
00000160: f5c0 82be 2106 c63e 749d b83c acf6 f0bd
00000170: e2c1 623e 4ed1 183f a33c e5be 264e 86be
00000180: 8fe3 053f e160 ccbe 0d33 23bd a807 64be
00000190: 849a 92be 88cc ff3d 3829 87bd aad3 b9be
000001a0: d28f b33e 47c5 edbe c189 11be 672b 9b3e
000001b0: 901a c3bd 2c80 22be 0c42 853f be28 c33e
000001c0: 1cc7 1d3e 66c4 eebe 5422 a8be 146c 2abe
000001d0: c01f a03d 8642 e1be 649b 5cbe 5842 99be
000001e0: dffa 8b3e 0e93 94be b42f 813e 8613 0cbd
000001f0: 98b7 afbe d259 95be 9c41 2fbe 500e cabe
00000200: fdc0 ba3e 12b6 39bf 1c09 ad3e d16a 82bd
00000210: b0c7 d8be 3829 b13e c8df 0cbe 5043 44be
00000220: 807f d4be 5081 febe 187d 123e c0af dfbd
00000230: 5c55 473e 0017 d2be d60f be3e f2ea bbbe
00000240: f813 f6bc 1ac6 cc3e 2633 9b3e 75a5 b63e
00000250: e423 0a3f 3f0e 07bf 307a dc3e 6285 aebb
00000260: f360 3f3e 9332 ddbe 9572 473f 9906 48bd
00000270: 4ecb bd3e 9bda 9fbe 40ec b9bc 9896 c8be
00000280: 0cb1 e83e 4006 e13d 38ba 833d ea99 e1be
00000290: d684 ef3d cc79 24bf ae62 b3be da3d e83e
000002a0: b04c e43d 86a3 8dbe 5292 81be 809b c3bc
000002b0: a7fc 8b3e 2cb1 b1be b4b3 76bd 7738 33bc
000002c0: bfb3 a8be 20d8 ea3e 5457 893e 1a70 debe
000002d0: 948f 373f 11f7 433f 2cf5 cf3e b294 5c3e
000002e0: 9494 6a3e a801 15be 988f 99bc 7211 54be
000002f0: 99e8 76be 4e18 9bbe c8a7 823c f4eb cbbd
00000300: 7e57 593e c5bd 283f 98ea 1dbe 7b50 64be
00000310: 457b 84be 6220 2fbf b0c4 fe3b 8d47 4b3d
00000320: ee72 77be 6698 573e f28f e93e c2d0 5f3e
00000330: a0b9 cbbc 0858 9abe 429f 9cbe fa50 e5be
00000340: 6cee 51be b201 df3e 81a3 963e 1a2b ce3d
00000350: b4c1 e9be 7330 cfbe 9040 503e 89fa 333f
00000360: 1821 943d d097 04be 7cd2 533e e802 43be
00000370: 8cb2 a5be e4d9 ba3e acce 68be 2847 cdbd
00000380: 48c5 e4be 9b00 323f 5a5e e43e 3b4a c63d
00000390: 9080 b2be 18a8 fcbe f6ea cfbe 36e6 be3e
000003a0: 80eb d33d 7fdd 313f b274 683e a606 de3a
000003b0: 8071 a0bb 86b0 c2be 6c55 dbbe 0273 efbe
000003c0: e497 513e 2860 7bbe 2815 cebd 5054 93be
000003d0: 12f1 693e 69f7 d5be 16a8 20bd 5dc3 033f
000003e0: 3904 44bc 8e8f 2dbd 7148 77be 69d5 93be
000003f0: f302 a33e 7339 9cbe d6d5 233e 00b6 b73d

fc1.bias f4 [256]
0.059057742 0.05614332 0.3202385 -0.38986036 0.23390538 -0.30242896 0.249946 -0.2186895
-0.02104949 -0.43381566 0.10799394 0.55075663 0.6877485 -0.24410169 -0.06611481 -0.054824233
-0.4025371 0.77557576 0.008060336 0.0027767126 -0.20191449 -0.28091225 0.056321826 0.09066303
0.21258159 -0.24097252 0.89909667 0.44091225 -0.30620754 -0.23385632 0.8117827 2.4080276e-05
0.06754527 -0.20808089 -0.1310727 -0.42111427 -0.33597195 0.7243358 0.7738011 0.3797164
-0.36097115 0.35727066 -0.3094833 0.6545706 0.25412005 0.6866407 0.22106907 0.64009285
-0.14130588 0.6013129 -0.15190724 0.21771741 -0.20204498 0.11218558 -0.43518943 -0.1307373
-0.20514788 -0.1686604 -0.4839606 -0.4497221 0.032558262 0.64067906 0.42687637 0.6938662
0.20021313 -0.49450487 0.004990304 0.673623 -0.5417879 0.17375599 0.7612034 0.06480276
-0.30122942 0.7961693 0.5672652 0.6653693 -0.33814275 0.32584804 -0.27875382 0.2080642
0.21376309 0.30128354 0.49512348 0.13250524 -0.0766775 0.20536768 -0.20838594 -0.47128963
-0.04186771 0.3729628 -0.13163483 0.06208326 -0.110534325 0.74084336 0.13923149 0.2650606
-0.25558084 -0.40856493 -0.07566333 -0.29332888 0.25037456 -0.48048788 0.19711597 0.29341483
0.663642 0.5541544 -0.48107332 0.7890091 -0.076626614 -0.4672042 0.31728768 0.11365347
-0.036859732 0.8766427 -0.34660035 -0.35374498 0.08130866 -0.35881788 0.27247405 -0.41935265
0.4695897 -0.22237986 -0.40206125 -0.45781845 0.09555839 0.4131683 -0.42272162 0.8412423
0.15081042 0.47573787 -0.34321153 0.47959688 0.6369285 0.057438437 -0.3894351 0.65691763
-0.035168566 0.3632654 0.3473826 0.20733021 -0.38705942 0.43783194 -0.33958745 -0.02417374
-0.3493818 0.3193694 -0.03353134 -0.1837107 -0.078987956 0.39481664 0.680203 0.29050577
0.0361218 0.055343192 0.6879926 -0.023074508 0.43754378 0.10289854 -0.43606526 -0.40277845
0.42553845 -0.19562513 0.39647502 -0.10364701 0.44470593 0.5973634 -0.24956696 0.7784333
0.28084433 -0.38374907 -0.26656824 -0.40453744 -0.1317879 -0.35896927 -0.22043988 -0.1215961
-0.25262427 -0.10424892 0.1798383 0.7254002 -0.22622283 -0.35800046 0.7051076 -0.052449748
0.82767665 0.15824153 0.90444124 -0.36766633 0.5128706 0.3275773 -0.24691576 0.37083185
0.11318434 0.0054755807 0.5654578 0.23250507 -0.4360919 0.029671868 0.53394496 -0.32677948
0.41154674 -0.42711133 0.70370555 0.43707266 -0.11060709 -0.31371439 0.22929151 0.376052
0.34416014 0.57548344 0.7919639 -0.21491796 -0.2151818 0.36162353 -0.27661586 0.8097329
-0.29174504 0.38034046 0.4935675 -0.24573044 0.1956117 -0.14664267 -0.462115 -0.14014268
-0.22677845 -0.22116105 -0.058107972 -0.4959671 -0.22643806 -0.04788965 -0.14743924 0.45201844
-0.08844493 0.70618266 0.085339285 -0.42206657 0.11749303 0.6212145 -0.3474969 -0.32318747
0.8460537 0.17666584 -0.015115587 0.6028092 -0.17589271 -0.25431067 0.03756672 0.2810035
-0.14998043 0.22457884 -0.42755044 0.7506082 0.8724277 0.49904612 -0.013581188 0.16467446
00000000: 88e6 713d 8af6 653d 4df6 a33e c79b c7be
00000010: e484 6f3e f8d7 9abe d8f1 7f3e 24f0 5fbe
00000020: fb6f acbc 161d debe ed2b dd3d 63fe 0c3f
00000030: 4910 303f cbf5 79be 3467 87bd 608f 60bd
00000040: 5819 cebe 228c 463f 800f 043c 82f9 353b
00000050: acc2 4ebe bbd3 8fbe b7b1 663d 8aad b93d
00000060: fdae 593e 80c1 76be 332b 663f 40bf e13e
00000070: 3cc7 9cbe 0878 6fbe fed0 4f3f 0000 ca37
00000080: 2d55 8a3d 2813 55be ec37 06be 4a9c d7be
00000090: 8404 acbe 126e 393f d417 463f 306a c23e
000000a0: 36d1 b8be 2eec b63e 9874 9ebe f091 273f
000000b0: 061c 823e afc7 2f3f ee5f 623e 20dd 233f
000000c0: 7db2 10be a4ef 193f 928d 1bbe 50f1 5e3e
000000d0: e1e4 4ebe 8ec1 e53d 26d1 debe 00e0 05be
000000e0: 4912 52be 50b5 2cbe afc9 f7be fa41 e6be
000000f0: d05b 053d 8b03 243f 8a8f da3e 37a1 313f
00000100: ac04 4d3e be2f fdbe b485 a33b 8f72 2c3f
00000110: 9db2 0abf 17ed 313e 3ade 423f 4fb7 843d
00000120: be3a 9abe c0d1 4b3f 4b38 113f a455 2a3f
00000130: 0c21 adbe 8ed5 a63e d2b8 8ebe c80e 553e
00000140: b6e4 5a3e d641 9a3e d380 fd3e 74af 073e
00000150: 1809 9dbd e84b 523e 2063 55be e04c f1be
00000160: 7a7d 2bbd fbf4 be3e 48cb 06be 044b 7e3d
00000170: d25f e2bd e9a7 3d3f b392 0e3e 06b6 873e
00000180: 7edb 82be 6c2f d1be 60f5 9abd 342f 96be
00000190: 1831 803e 8202 f6be c5d8 493e 783a 963e
000001a0: 71e4 293f 10dd 0d3f 3e4f f6be 80fc 493f
000001b0: 6aee 9cbd 6435 efbe 8873 a23e 27c3 e83d
000001c0: 3bfa 16bd a86b 603f 9a75 b1be 101e b5be
000001d0: 2885 a63d fab6 b7be b881 8b3e 64b5 d6be
000001e0: 106e f03e 8cb7 63be f9da cdbe 2e67 eabe
000001f0: 1eb4 c33d cc8a d33e f86e d8be a85b 573f
00000200: 0c6e 1a3e ea93 f33e 6cb9 afbe b98d f53e
00000210: bf0d 233f 9144 6b3d 0a64 c7be c12b 283f
00000220: ea0c 10bd ecfd b93e 22dc b13e 5f4e 543e
00000230: a72c c6be 822b e03e 68de adbe 0208 c6bc
00000240: 2ce2 b2be 6384 a33e 2958 09bd a81e 3cbe
00000250: 70c4 a1bd 6825 ca3e c921 2e3f 2cbd 943e
00000260: 74f4 133d 8baf 623d 4820 303f c006 bdbc
00000270: bd05 e03e 78bc d23d f243 dfbe fa38 cebe
00000280: 2de0 d93e f451 48be c6fe ca3e e244 d4bd
00000290: 7fb0 e33e cfec 183f 7b8e 7fbe 6847 473f
000002a0: d4ca 8f3e c27a c4be a27b 88be 881f cfbe
000002b0: 68f3 06be d2ca b7be feba 61be 6007 f9bd
000002c0: f857 81be 7580 d5bd 8827 383e d4b3 393f
000002d0: f5a6 67be d64b b7be ef81 343f 8cd5 56bd
000002e0: 9ee2 533f 110a 223e 7689 673f c33e bcbe
000002f0: 7d4b 033f 36b8 a73e 7cd7 7cbe acdd bd3e
00000300: 31cd e73d 806c b33b d8c1 103f cf15 6e3e
00000310: 7047 dfbe 6b12 f33c 9eb0 083f a44f a7be
00000320: 41b6 d23e 56ae dabe 0c26 343f fdc7 df3e
00000330: f885 e2bd 2c9f a0be 65cb 6a3e e389 c03e
00000340: c235 b03e e252 133f 25be 4a3f 7413 5cbe
00000350: 9e58 5cbe b826 b93e 98a0 8dbe a84a 4f3f
00000360: 9b5f 95be fcbb c23e e1b4 fc3e c3a0 7bbe
00000370: 6f4e 483e 7f29 16be 569a ecbe 9081 0fbe
00000380: 9c38 68be 0b78 62be a002 6ebd 66ef fdbe
00000390: 61df 67be f027 44bd 50fa 16be f66e e73e
000003a0: 9e22 b5bd 63c8 343f 5dc6 ae3d 1c19 d8be
000003b0: 30a0 f03d ea07 1f3f 1deb b1be d478 a5be
000003c0: fa96 583f e4e7 343e 5ea7 77bc b451 1a3f
000003d0: 381d 34be 0235 82be 90df 193d b1df 8f3e
000003e0: 7894 19be fff7 653e e4e7 dabe dc27 403f
000003f0: 6c57 5f3f f982 ff3e a283 5ebc 6ca0 283e

fc2.weight f4 [128, 256]
-0.04522174 -0.0156170875 -0.005966723 -0.034780383 -0.046163753 0.042038597 0.04241533 -0.056761764
0.019888245 0.025425136 0.05937302 0.036159605 0.057458542 -0.020461857 0.04377415 0.050837584
-0.059020504 -0.05016917 0.012650341 0.034127362 -0.031050816 0.006883405 -9.073317e-05 0.01581923
-0.03358435 0.035252437 0.041563086 -0.04336614 0.000605464 0.00017341226 0.020069733 0.05822403
0.018328965 -0.014201373 0.056133308 -0.023783304 -0.018148236 0.0042672083 -0.0475943 0.0068010837
-0.04240472 0.0064262897 0.005987972 0.008651294 -0.052705973 -0.059361517 0.028757334 0.053599745
-0.055460773 0.02314964 -0.046007596 0.003918208 0.058147356 0.0474137 -0.045696236 0.038660742
0.032644823 -9.586662e-05 0.060545422 -0.02482345 -0.01454474 -0.031588383 0.008993551 0.01654917
0.004980013 -0.03516482 -0.028135404 0.021259531 -0.05480165 -0.009733409 -0.0013844743 -0.025322743
0.02274488 0.0040283576 0.04387904 -0.00555072 -0.039446153 0.044159487 0.00872805 -0.017899886
-0.041193925 0.014649309 -0.059609532 0.016461112 0.030902795 -0.05482503 -0.040917024 -0.044932865
0.05253166 0.05313254 0.003912553 0.058675364 -0.020893998 -0.06067639 0.021830931 0.022141784
0.061273895 -1.809001e-05 0.04789976 0.038310237 0.045235552 -0.062020756 0.051466122 -0.053278305
0.056031942 -0.0025900379 -0.05538857 0.017380796 -0.012721673 -0.056137085 -0.022658639 0.006444074
0.048677914 -0.019214354 0.037122995 0.007826783 0.002106741 0.011959061 -0.041016795 -0.05194989
-0.019638225 -0.058240876 -0.02914691 0.0028753653 -0.04116308 -0.02592475 -0.011230402 -0.0072002113
-0.03450091 0.0030031875 -0.00877253 0.017874725 0.0028229654 -0.031210609 -0.021517746 -0.0007203594
-0.03899908 0.004892811 -0.0044128597 0.02424866 0.014791608 0.04677397 -0.0020603389 -0.046181574
0.02793806 -0.042239867 -0.008590773 -0.02023767 -0.02371528 -0.023123994 0.057432532 0.035778552
0.017321087 0.05868479 -0.056638874 0.010085471 0.040011026 0.041518122 -0.04974086 0.022243097
-0.03560537 -0.002442114 -0.013041891 -0.052185282 -0.05961965 -0.04111862 0.028360657 0.028589718
-0.054360233 -0.023471393 0.0010209009 -0.05403641 0.035215907 0.056608275 0.01105386 -0.046438426
0.014574148 0.022688352 0.04949019 -0.03325437 -0.05599436 0.027459413 0.003891021 -0.02036415
-0.026188895 -0.03222599 0.050593562 -0.010783695 0.04507544 0.055790603 0.007917255 0.013313599
-0.0042565465 0.04292596 -0.056317993 0.024855189 -0.010183051 0.028538518 -0.00027837604 -0.02314163
-0.0067468733 0.03374955 -0.04340812 -0.039506197 -0.013999775 -0.022670284 0.02455245 0.042060614
-0.006693661 0.059098363 -0.026113749 -0.03507246 -0.027980879 -0.043060772 -0.043808363 -0.05568847
-0.05539245 0.016312413 0.038115874 0.058677956 0.053237334 -0.0035996065 0.012127914 -0.037394986
0.024157569 -0.059927568 0.029479556 0.011463471 0.019206516 0.022884272 -0.028694049 0.05363165
0.02982828 0.041055918 0.008254908 0.03924916 0.042062566 0.028327182 0.047610544 -0.011336118
0.04109601 0.014399946 0.037606 0.06087491 0.014152318 -0.023197934 -0.006218508 0.01759553
0.010538079 -0.017073132 0.048969902 0.037550457 -0.038822107 -0.005092591 -0.00599961 -0.039170675
00000000: 6e3a 39bd d0de 7fbc 8084 c3bb e075 0ebd
00000010: 3416 3dbd aa30 2c3d b2bb 2d3d 067f 68bd
00000020: acec a23c 6048 d03c 2031 733d 181c 143d
00000030: a659 6b3d a09f a7bc 864c 333d 123b 503d
00000040: 7cbf 71bd 307e 4dbd 6043 4f3c 22c9 0b3d
00000050: 485e febc 308e e13b 0048 beb8 5497 813c
00000060: be8f 09bd dc64 103d 0e3e 2a3d b2a0 31bd
00000070: 00b8 1e3a 00d6 3539 4869 a43c 527c 6e3d
00000080: a026 963c e0ac 68bc 0aec 653d 34d5 c2bc
00000090: 9cab 94bc f0d3 8b3b 3ef2 42bd a0db de3b
000000a0: 92b0 2dbd a093 d23b c036 c43b 28be 0d3c
000000b0: 38e2 57bd 1025 73bd 8094 eb3c 688b 5b3d
000000c0: d62a 63bd 50a4 bd3c 7672 3cbd 5064 803b
000000d0: ec2b 6e3d de34 423d fa2b 3bbd ba5a 1e3d
000000e0: 94b6 053d 000c c9b8 7afe 773d 8c5a cbbc
000000f0: 104d 6ebc d262 01bd b059 133c 2092 873c
00000100: 602f a33b fc08 10bd 387c e6bc 7828 ae3c
00000110: b277 60bd e078 1fbc 4077 b5ba a471 cfbc
00000120: 7853 ba3c 5000 843b 82ba 333d d0e2 b5bb
00000130: 4a92 21bd 94e0 343d 1800 0f3c c8a2 92bc
00000140: f6ba 28bd a803 703c 2029 74bd 74d9 863c
00000150: dc27 fd3c 3690 60bd 9c98 27bd 860b 38bd
00000160: 702b 573d 82a1 593d e034 803b 9455 703d
00000170: e429 abbc ce87 78bd c8d6 b23c b062 b53c
00000180: 56fa 7a3d 00c0 97b7 8a32 443d 32eb 1c3d
00000190: ea48 393d 7a09 7ebd 24ce 523d 5a3a 5abd
000001a0: c081 653d a0bd 29bb 20df 62bd 2c62 8e3c
000001b0: 906e 50bc 00f0 65bd 9c9e b9bc d028 d33b
000001c0: 7e62 473d 6c67 9dbc 480e 183d e83b 003c
000001d0: 4011 0a3b f0ef 433c 3a01 28bd 68c9 54bd
000001e0: 58e0 a0bc fc8d 6ebd 80c5 eebc a070 3c3b
000001f0: 9e9a 28bd 2460 d4bc b8ff 37bc c0ef ebbb
00000200: d450 0dbd 20d1 443b a8ba 0fbc 046e 923c
00000210: 8001 393b 64ad ffbc fc45 b0bc 80d6 3cba
00000220: 80bd 1fbd e053 a03b c099 90bb 20a5 c63c
00000230: 8058 723c 1096 3f3d c006 07bb e428 3dbd
00000240: 5cde e43c b603 2dbd 50c0 0cbc 78c9 a5bc
00000250: 8c46 c2bc 886e bdbc 603e 6b3d 888c 123d
00000260: f4e4 8d3c 765f 703d 2afe 67bd 883d 253c
00000270: 9ae2 233d e80e 2a3d 12bd 4bbd 2837 b63c
00000280: f0d6 11bd e00b 20bb a8ad 55bc 3cc0 55bd
00000290: bc33 74bd 006c 28bd 9c54 e83c fc34 ea3c
000002a0: d6a8 5ebd 1447 c0bc c0cf 853a 4855 5dbd
000002b0: 8e3e 103d 14de 673d 401b 353c 3836 3ebd
000002c0: 68c8 6e3c ecdc b93c 3ab6 4a3d bc35 08bd
000002d0: 585a 65bd 90f2 e03c 8000 7f3b b8d2 a6bc
000002e0: 188a d6bc 66ff 03bd 323b 4f3d 18ae 30bc
000002f0: 06a1 383d b084 643d 60b7 013c 4821 5a3c
00000300: 807a 8bbb 22d3 2f3d b2ad 66bd 1c9d cb3c
00000310: d0d6 26bc 9cc9 e93c 00f3 91b9 8493 bdbc
00000320: e014 ddbb f83c 0a3d b6cc 31bd 40d1 21bd
00000330: 505f 65bc 08b7 b9bc 3822 c93c c047 2c3d
00000340: 8056 dbbb 2011 723d 80ec d5bc 24a8 0fbd
00000350: 2838 e5bc 7e60 30bd 6670 33bd 9819 64bd
00000360: 32e3 62bd 9ca1 853c 641f 1c3d 4c58 703d
00000370: 640f 5a3d 60e7 6bbb 28b4 463c 7c2b 19bd
00000380: 18e6 c53c 9c76 75bd 1c7f f13c 48d1 3b3c
00000390: fc56 9d3c cc77 bb3c c80f ebbc dcac 5b3d
000003a0: 705a f43c 402a 283d 983f 073c bac3 203d
000003b0: cc49 2c3d 680e e83c 4603 433d 20bb 39bc
000003c0: 4a54 283d c0ed 6b3c c008 1a3d f857 793d
000003d0: 20df 673c 9809 bebc a0c4 cbbb 8024 903c
000003e0: e8a7 2c3c f4dc 8bbc aa94 483d 82ce 193d
000003f0: ee03 1fbd c0df a6bb 6098 c4bb 6e71 20bd

fc2.bias f4 [128]
-0.054163538 -0.22040488 -0.0406589 -0.05770894 -0.008859281 0.14683045 0.052727524 -0.026952604
-0.042624675 -0.005439887 -0.14965552 0.11872431 -0.04037004 0.3792398 -0.03355234 0.13013773
-0.10337045 0.06543579 0.056913905 0.045445055 0.14693059 -0.25600445 -0.04036077 -0.043559838
0.05449117 0.061657146 -0.06008469 0.22686456 -0.04150821 0.21031238 -0.02557307 -0.06501806
-0.004549816 -0.029516477 0.03522369 -0.02942928 -0.06326433 -0.0012468144 -0.20230566 0.24062671
-0.2394785 -0.05872322 0.029171355 -0.033300668 -0.066658914 -0.032546036 -0.06450208 -0.03539255
0.23514773 -0.22809502 -0.07111178 0.007325796 0.00927268 -0.047065567 0.20655982 -0.28216195
-0.04926154 0.09700887 0.16855451 0.00842332 -0.24749833 0.28784207 -0.1474154 -0.0562568
-0.272502 -0.2760496 -0.19842589 -0.010374516 -0.030134864 -0.25068867 -0.07934782 -0.067756675
-0.012785979 -0.07409855 -0.07783142 0.60035634 -0.36603805 -0.06406443 -0.02498308 0.0033584798
-0.24003099 -0.0652261 0.22811037 0.05439361 0.1521376 -0.05107616 -0.037478 0.040843956
-0.01934835 -0.31821367 0.10226751 -0.06294072 -0.0005157197 0.041575205 0.030375687 -0.018194424
0.0054814816 -0.0024021217 -0.024816237 -0.27893227 -0.018118475 -0.064366035 -0.005409379 0.019148923
0.02265904 -0.03235761 0.02306258 -0.05538663 -0.04047704 -0.2217449 0.01393349 -0.20297101
-0.30809775 0.027147386 -0.0015154615 0.011558173 0.17415464 -0.015464855 -0.17122139 0.3371565
0.2726665 -0.052698236 0.027395094 -0.1614068 -0.031245314 -0.20370033 -0.22877772 -0.14820687
00000000: 96da 5dbd d1b1 61be f289 26bd 3660 6cbd
00000010: 8526 11bc b95a 163e d1f8 573d b5cb dcbc
00000020: 3697 2ebd 1441 b2bb 4c3f 19be bb25 f33d
00000030: 0e5b 25bd b82b c23e 2e6e 09bd d342 053e
00000040: e3b3 d3bd 3303 863d 8e1e 693d 9824 3a3d
00000050: f974 163e 0413 83be 5651 25bd cd6b 32bd
00000060: 2232 5f3d 348c 7c3d 5d1b 76bd 2f4f 683e
00000070: 8304 2abd 215c 573e 9d7e d1bc 3028 85bd
00000080: 9f16 95bb 8acc f1bc b746 103d ac15 f1bc
00000090: bb90 81bd 266c a3ba 3729 4fbe d966 763e
000000a0: da39 75be c287 70bd c4f8 ee3c 4866 08bd
000000b0: 7884 88bd fe4e 05bd ab19 84bd c7f7 10bd
000000c0: 91ca 703e be91 69be 0ea3 91bd 3b0d f03b
000000d0: 70ec 173c d3c7 40bd 6b84 533e 8877 90be
000000e0: 78c6 49bd 96ac c63d 8e99 2c3e f701 0a3c
000000f0: 3470 7dbe 0960 933e 10f4 16be 886d 66bd
00000100: 6285 8bbe 6056 8dbe 2830 4bbe e0f9 29bc
00000110: 64dd f6bc 445a 80be 1c81 a2bd 03c4 8abd
00000120: 487c 51bc fbc0 97bd 1466 9fbd f4b0 193f
00000130: 5769 bbbe 3634 83bd 51a9 ccbc f119 5c3b
00000140: afca 75be 4395 85bd c495 693e d6cb 5e3d
00000150: f6c9 1b3e 3c35 51bd 8882 19bd fe4b 273d
00000160: 6e80 9ebc e7ec a2be a171 d13d 10e7 80bd
00000170: 5d31 07ba c34a 2a3d 6fd6 f83c 790c 95bc
00000180: 009e b33b ea6c 1dbb 6c4b cbbc 36d0 8ebe
00000190: 326d 94bc 57d2 83bd 2941 b1bb 34de 9c3c
000001a0: 739f b93c 6a89 04bd bced bc3c 17dd 62bd
000001b0: 41cb 25bd 1811 63be 4b49 643c a2d7 4fbe
000001c0: fdbe 9dbe 3264 de3c 73a2 c6ba 7e5e 3d3c
000001d0: 9855 323e 4e60 7dbc a954 2fbe c79f ac3e
000001e0: f29a 8b3e 1bda 57bd ad6b e03c d347 25be
000001f0: 2cf6 ffbc d296 50be b544 6abe 8bc3 17be

fc3.weight f4 [64, 128]
-0.00554017 -0.038368788 0.067673124 -0.018238544 0.078920506 0.03598244 0.050541826 0.015004471
-0.028354093 -0.06392588 0.06591522 -0.07576594 0.0054212734 -0.082030684 -0.09873588 -0.006641926
-0.056709442 -0.07562591 -0.049488872 0.08451406 -0.012495332 0.005451153 -0.058834966 -0.029006526
0.06223049 0.070326485 8.217245e-05 -0.093356565 0.08376398 -0.05752915 -0.044701517 0.06348983
0.015689952 -0.0026713759 0.049983405 0.03671526 0.086745314 0.077051006 0.009083189 0.062013987
-0.09875913 -0.05470761 -0.06259569 -0.019661747 0.08209214 0.014643259 -0.007792257 -0.0069401637
-0.04798921 -0.04303284 0.07814092 -0.054275256 0.026154734 0.0055258125 0.07143483 -0.057597958
-0.023309812 -0.063896105 -0.027297193 -0.056266114 -0.067319974 -0.021830576 -0.0021587892 0.039477117
0.010851251 -0.064044915 -0.099370435 -0.08157308 -0.004594967 -0.0060386 0.05835562 0.08217812
0.08807839 0.0752288 0.05904403 -0.014757687 0.02744495 -0.0060407594 -0.07220587 0.029914252
0.07214125 -0.054033883 0.07114992 -0.05165974 -0.05995577 0.064321525 -0.07385115 0.028646678
0.04275272 0.048869178 -0.04420093 -0.07565276 0.08684524 -0.011137851 0.043082513 0.0003946945
-0.053780843 -0.08606162 0.074079745 -0.10072721 -0.0722464 0.062806435 0.013363287 -0.016015679
-0.060785595 -0.086288705 -0.019476205 0.043058954 0.034075968 0.024640651 0.05632387 -0.0022527943
-0.028648932 -0.057595238 -0.0014031604 0.02695004 0.009879058 0.06970484 0.06581786 0.021223996
-0.093785934 -0.037839133 0.036971606 0.060121555 -0.0042508766 -0.066319264 0.016148783 -0.012886396
-0.040008 -0.0012358751 -0.0054069236 0.07253539 -0.0048971027 0.07930025 0.5292894 -0.034177594
0.05643884 0.4615274 0.4817509 0.057225466 -0.012367763 -0.03937822 0.5265736 0.16639341
0.52130735 -0.22440992 0.36816698 -0.0653781 0.19148552 -0.18830508 -0.037195466 0.0104043055
0.080928944 -0.07241074 0.017590199 -0.18385804 0.063916884 -0.31599957 0.066520445 -0.02311926
0.17135184 -0.050861087 -0.013910221 0.040032826 -0.013517737 0.07662778 -0.12495233 0.09174998
-0.13131858 -0.0836793 -0.0635547 0.016101507 -0.06679597 -0.011006236 -0.039130356 -0.05611395
0.02463741 -0.18021648 -0.09670956 0.04604559 -0.0882914 -0.0052182004 -0.06145679 0.0053358353
0.030315982 0.50660205 -0.25089964 -0.08099202 -0.09947691 0.07351196 -0.07783237 -0.03151221
0.04508041 -0.2350351 -0.041795313 -0.028301671 0.044632576 -0.12580368 0.56322664 0.0018613617
-0.049754355 0.032193083 0.47677463 -0.022085506 -0.23595956 0.034019627 -0.0011735335 -0.01697206
-0.14828712 0.5524087 -0.7723929 0.03820666 -0.6323898 -0.05204119 0.031685956 0.022388563
-0.0142921135 0.0025924195 0.18860732 0.03009136 -0.060085714 0.028904002 -0.029118214 0.04097142
-0.07954238 0.008954816 -0.0290308 0.011684839 0.2598458 -0.06948249 0.014171835 0.50697005
-0.063379064 -0.06524917 -0.069467045 0.02490365 0.055779833 -0.10495603 0.36047283 0.0120041035
-0.09249278 -0.07031591 -0.052989703 0.24587622 -0.0013936427 0.022363253 -0.025502944 0.06258286
-0.1432386 -0.027878068 0.011086367 -0.057831094 0.07187252 -0.11064892 -0.010453995 0.0045528216
00000000: 508a b5bb 9728 1dbd 3598 8a3d 0069 95bc
00000010: 13a1 a13d 5362 133d f204 4f3d 50d5 753c
00000020: d846 e8bc 92eb 82bd 8ffe 863d 2c2b 9bbd
00000030: f0a4 b13b b4ff a7bd 0936 cabd 83a4 d9bb
00000040: 2948 68bd c2e1 9abd d8b4 4abd b515 ad3d
00000050: 39b9 4cbc 969f b23b effc 70bd 189f edbc
00000060: 66e5 7e3d 5507 903d 0054 ac38 ba31 bfbd
00000070: 738c ab3d b0a3 6bbd f018 37bd f506 823d
00000080: 3788 803c 4012 2fbb 66bb 4c3d be62 163d
00000090: 87a7 b13d ebcc 9d3d a8d1 143c 6102 7e3d
000000a0: 3a42 cabd 1615 60bd 2b32 80bd ac11 a1bc
000000b0: ed1f a83d 48ea 6f3c 3056 ffbb 506a e3bb
000000c0: 5590 44bd 3443 30bd 5908 a03d bb4f 5ebd
000000d0: 7442 d63c e011 b53b 6d4c 923d d6eb 6bbd
000000e0: 38f4 bebc f6db 82bd 5d9e dfbc 4c77 66bd
000000f0: 0edf 89bd 09d6 b2bc 797a 0dbb c2b2 213d
00000100: 72c9 313c fb29 83bd ba82 cbbd c90f a7bd
00000110: 6091 96bb 73df c5bb 4d06 6f3d 014d a83d
00000120: 7162 b43d 8f11 9a3d 27d8 713d 3aca 71bc
00000130: 3bd4 e03c 90f1 c5bb ace0 93bd bc0e f53c
00000140: cbbe 933d a252 5dbd 0db7 913d 2a99 53bd
00000150: 2e94 75bd 01bb 833d 463f 97bd 70ac ea3c
00000160: 7a1d 2f3d 0c2b 483d 090c 35bd d6ef 9abd
00000170: ebdb b13d 887b 36bc 4a77 303d 00ef ce39
00000180: 4d49 5cbd 1341 b0bd 1fb7 973d 114a cebd
00000190: ecf5 93bd a9a0 803d b0f1 5a3c 5033 83bc
000001a0: 51fa 78bd 22b8 b0bd 908c 9fbc 965e 303d
000001b0: 3e93 0b3d 31db c93c dcb3 663d 9ea3 13bb
000001c0: 2ab1 eabc fce8 6bbd 40ea b7ba 55c6 dc3c
000001d0: c6db 213c 69c1 8e3d 84cb 863d f2dd ad3c
000001e0: d712 c0bd 35fd 1abd 8a6f 173d 0542 763d
000001f0: f04a 8bbb 65d2 87bd 744a 843c 7621 53bc
00000200: 6edf 23bd 16fd a1ba 902c b1bb 6f8d 943d
00000210: e077 a0bb 2b68 a23d 837f 073f cefd 0bbd
00000220: 6a2c 673d 524d ec3e 0ea8 f63e 4065 6a3d
00000230: 28a2 4abc 0e4b 21bd 87cd 063f 0963 2a3e
00000240: 6674 053f b7cb 65be 6280 bc3e f4e4 85bd
00000250: c814 443e 0cd3 40be 465a 18bd d276 2a3c
00000260: 13be a53d 154c 94bd 5219 903c 4845 3cbe
00000270: dbe6 823d b2ca a1be df3b 883d 9a64 bdbc
00000280: db76 2f3e b753 50bd b2e7 63bc 76f9 233d
00000290: 8079 5dbc 07ef 9c3d 02e7 ffbd 6ae7 bb3d
000002a0: 6178 06be 0e60 abbd f728 82bd 4fe7 833c
000002b0: 53cc 88bd 8053 34bc 2747 20bd bed7 65bd
000002c0: 65d4 c93c ab8a 38be a90f c6bd 4d9a 3c3d
000002d0: 1fd2 b4bd 70fd aabb 1dba 7bbd 3bd8 ae3b
000002e0: 3959 f83c acb0 013f eb75 80be 25df a5bd
000002f0: 8dba cbbd 708d 963d 9466 9fbd f212 01bd
00000300: 3ca6 383d 0bad 70be 9031 2bbd e8d8 e7bc
00000310: a6d0 363d aed2 00be 9f2f 103f eff8 f33a
00000320: 39cb 4bbd e5dc 033d ce1b f43e aaec b4bc
00000330: 629f 71be 2a58 0b3d 40d1 99ba fd08 8bbc
00000340: 94d8 17be a86a 0d3f 8bbb 45bf 967e 1c3d
00000350: 4ce4 21bf 2529 55bd 22c9 013d 3868 b73c
00000360: 7829 6abc 95e5 293b 4722 413e 2882 f63c
00000370: 701c 76bd 16c8 ec3c 5289 eebc a6d1 273d
00000380: 1ee7 a2bd 38b7 123c 00d2 edbc c471 3f3c
00000390: 820a 853e d64c 8ebd fc30 683c cac8 013f
000003a0: e2cc 81bd 5ba1 85bd bd44 8ebd bd02 cc3c
000003b0: 6579 643d 30f3 d6bd e58f b83e dcac 443c
000003c0: db6c bdbd ca01 90bd bb0b 59bd fac6 7b3e
000003d0: e4aa b6ba 2433 b73c 8deb d0bc 712b 803d
000003e0: 24ad 12be 8c60 e4bc 98a3 353c 4ce0 6cbd
000003f0: e631 933d e79b e2bd 3c47 2bbc d62f 953b

fc3.bias f4 [64]
-0.024895279 -0.010090203 -0.067094885 0.048545364 -0.41740185 -0.033679597 0.08680704 0.08577449
-0.08796713 0.1406957 -0.09602524 0.0126244 0.12930776 -0.09325109 -0.051338382 -0.046261113
0.042632747 0.07962456 0.19210285 0.17637767 -0.083188824 0.0765185 0.30610424 0.124312416
-0.06921672 0.008173843 0.19888082 -0.038858037 0.25614268 -0.0020396593 -0.33128044 0.211273
0.0070741028 0.112870775 -0.08211995 -0.011699465 0.21749063 0.05134392 0.16389409 -0.052992243
0.10439063 0.016038513 -0.06937061 0.02844255 0.096167006 0.071739405 0.30266124 -0.02064067
-0.08598094 0.16213433 -0.06220828 0.16214372 0.0036380142 0.09378498 -0.10235644 0.107122816
0.03519605 0.17865978 -0.031448815 -0.24755783 0.0954385 0.06324667 0.082870774 -0.0067732795
00000000: 2ff1 cbbc 6151 25bc 0b69 89bd 81d7 463d
00000010: b2b5 d5be 9ef3 09bd e4c7 b13d 89aa af3d
00000020: 1c28 b4bd 8912 103e e2a8 c4bd 92d6 4e3c
00000030: 4169 043e 6dfa bebd 3248 52bd 4b7c 3dbd
00000040: ad9f 2e3d 3412 a33d 9cb6 443e 599c 343e
00000050: e75e aabd bbb5 9c3d b2b9 9c3e 8297 fe3d
00000060: 7fc1 8dbd 95eb 053c 6aa7 4b3e 9b29 1fbd
00000070: 2225 833e ceab 05bb 979d a9be f357 583e
00000080: e0cd e73b cb28 e73d 812e a8bd 1daf 3fbc
00000090: ddb5 5e3e 014e 523d dad3 273e 650e 59bd
000000a0: c1ca d53d 3363 833c 2e12 8ebd 5a00 e93c
000000b0: 35f3 c43d 1cec 923d 6af6 9a3e 9f16 a9bc
000000c0: c616 b0bd 8b06 263e 1cce 7ebd 0109 263e
000000d0: c06b 6e3b 5712 c03d 41a0 d1bd 3563 db3d
000000e0: bc29 103d 97f2 363e 79d0 00bd cd7f 7dbe
000000f0: 4375 c33d 7887 813d 27b8 a93d 63f2 ddbb

fc4.weight f4 [3, 64]
0.060227036 0.6890285 0.10102788 0.052624393 0.2313372 0.090190455 -0.08377654 -0.17585246
-0.053311944 -0.29535902 -0.06525764 0.06182091 0.084744155 -0.048511576 0.022971628 -0.058546722
-0.09746884 0.033812817 -0.5895682 0.00680256 -0.022557616 0.101660796 0.0006721516 -0.02845529
-0.09653437 0.059245866 0.05222349 0.09803618 -0.15379559 -0.10161793 -0.17272204 0.048257876
0.00833258 0.08584895 0.026525369 0.11124605 0.04263812 0.08919146 0.058462285 -0.048816428
0.0038643335 0.04520978 0.043868467 -0.124153994 -0.22277987 -0.07429185 -0.385782 0.038154464
0.069364674 -0.06129361 0.110239595 -0.07611329 0.09624444 0.0130982 0.28963915 -0.07289118
0.05050484 -0.12887618 0.10699157 -0.24527618 0.09227254 -0.019479588 0.07479079 0.08783412
-0.025621012 0.96961474 0.06952287 -0.79263896 -1.3924206 0.006392047 0.0060730283 -0.97897834
0.02748635 -0.6990087 0.06479877 0.08422434 -0.83854985 -0.088709176 0.019179428 0.043440465
-1.0297136 -0.87032557 -0.8450422 0.36641267 0.08567542 0.0151976 0.7659319 -0.822855
0.062175646 0.09143621 -0.8500058 0.088202454 0.5470455 0.108493224 -1.0505117 0.4091825
0.108346045 0.32449508 0.10309445 -0.040138263 -0.91180146 -0.019191595 -0.8151197 0.10929325
-0.7653359 -0.032424793 0.019049363 -0.0593396 0.6354509 0.08907904 0.8248032 -0.030881299
-0.04687163 -0.8061484 -0.08701402 0.27778485 0.09871608 -0.8906545 0.4107384 -0.85646504
-0.012217119 -0.8735624 -0.053798586 -1.0989313 -0.8431917 -0.8721078 0.32013643 0.06598252
0.039737284 0.19449706 -0.086817496 -0.6681401 -2.2496924 -0.0326107 -0.00029890361 -1.010063
0.029686237 -0.22883447 -0.014211364 0.0063307574 -0.79404575 -0.014083229 -0.11051276 0.11115748
-0.8893418 -0.79850686 -0.07970113 0.479498 0.10816595 -0.052289147 0.467678 -0.69155127
-0.034419138 -0.11275429 -0.77486247 0.1187055 0.5297434 -0.09411325 -1.4552395 0.44487858
0.011527851 0.40463644 -0.11130183 0.11690526 -0.99191356 0.08287064 -0.7997476 0.047015775
-0.35391116 0.017489608 0.005285171 0.11674225 0.6990406 0.040882286 0.37539038 0.078362025
0.09698978 -0.6023078 0.042319037 0.44550893 0.07111353 -0.7789412 0.38945004 -0.77787185
0.03262306 -0.76772803 0.062035576 -1.5399575 -0.718626 -0.7719281 0.44373637 0.026892018
00000000: a0b0 763d 2c64 303f b5e7 ce3d ad8c 573d
00000010: a9e3 6c3e c6b5 b83d 0993 abbd ab12 34be
00000020: a05d 5abd 4c39 97be cca5 85bd ec37 7d3d
00000030: 588e ad3d 13b4 46bd ff2e bc3c b0ce 6fbd
00000040: be9d c7bd 4f7f 0a3d f1ed 16bf 02e8 de3b
00000050: c0ca b8bc 8933 d03d 5533 303a 111b e9bc
00000060: d0b3 c5bd cbab 723d 4ce8 553d 31c7 c83d
00000070: 977c 1dbe 101d d0bd 0cde 30be 0daa 453d
00000080: 6085 083c 93d1 af3d bb4b d93c f8d4 e33d
00000090: 4fa5 2e3d 03aa b63d 2676 6f3d bcf3 47bd
000000a0: c240 7d3b e42d 393d 6caf 333d 7344 febd
000000b0: 6820 64be 5326 98bd 3885 c5be db47 1c3d
000000c0: 110f 8e3d 020f 7bbd 4cc5 e13d 49e1 9bbd
000000d0: ce1b c53d d599 563c 954b 943e f947 95bd
000000e0: 2ade 4e3d 1ef8 03be 651e db3d ae29 7bbe
000000f0: 63f9 bc3d a893 9fbc ea2b 993d 60e2 b33d
00000100: 28e3 d1bc ac38 783f 0262 8e3d 63ea 4abf
00000110: d73a b2bf 6074 d13b 4100 c73b 539e 7abf
00000120: 0e2b e13c 3cf2 32bf 38b5 843d d07d ac3d
00000130: 34ab 56bf 28ad b5bd 2d1e 9d3c a1ee 313d
00000140: a8cd 83bf a8cd 5ebf b054 58bf 719a bb3e
00000150: 9876 af3d 5bff 783c 1d14 443f a0a6 52bf
00000160: e4ab 7e3d e842 bb3d fb99 59bf 7da3 b43d
00000170: 2d0b 0c3f b231 de3d 2b77 86bf 5e80 d13e
00000180: 88e4 dd3d 3824 a63e 2f23 d33d 0568 24bd
00000190: d26b 69bf b137 9dbc afab 50bf 24d5 df3d
000001a0: 0eed 43bf dccf 04bd 690d 9c3c 150e 73bd
000001b0: e9ac 223f 126f b63d 4d26 533f c7fa fcbc
000001c0: 77fc 3fbd be5f 4ebf 6834 b2bd d139 8e3e
000001d0: a82b ca3d ef01 64bf 4e4c d23e 4b41 5bbf
000001e0: 502a 48bc c9a1 5fbf e85b 5cbd c8a9 8cbf
000001f0: 69db 57bf 7542 5fbf ece8 a33e d821 873d
00000200: 90c3 223d 3d2a 473e 5fcd b1bd 3b0b 2bbf
00000210: f6fa 0fc0 cc92 05bd 2ab6 9cb9 bf49 81bf
00000220: 8d30 f33c 9553 6abe c8d6 68bc 3e72 cf3b
00000230: 9546 4bbf 58bd 66bc 8454 e2bd 88a6 e33d
00000240: e7ab 63bf f26a 4cbf 593a a3bd c380 f53e
00000250: 1c86 dd3d 252d 56bd 7e73 ef3e 8109 31bf
00000260: 15fb 0cbd b9eb e6bd 635d 46bf df1b f33d
00000270: 439d 073f 73be c0bd 4a45 babf 20c7 e33e
00000280: 50df 3c3c 822c cf3e 37f2 e3bd 066c ef3d
00000290: 0cee 7dbf 15b8 a93d 42bc 4cbf 9d93 403d
000002a0: d833 b5be 5e46 8f3c 3a2f ad3b 9016 ef3d
000002b0: 53f4 323f 2f74 273d 2b33 c03e 457c a03d
000002c0: 94a2 c63d d830 1abf ba56 2d3d bf19 e43e
000002d0: f8a3 913d b168 47bf ff65 c73e 9c22 47bf
000002e0: c29f 053d d389 44bf 0419 7e3d 541d c5bf
000002f0: e0f7 37bf 149d 45bf 6a31 e33e a64c dc3c

fc4.bias f4 [3]
-0.049476814 -0.027098516 -0.13326731
00000000: 33a8 4abd b5fd ddbc 3a77 08be
